cloud/backend/ecg_model.tflite (tflite, 15620 bytes, 8 tensors)

arith.constant f4 [6, 16]
000000 97 48 5c 3e 55 02 68 3e d2 62 b8 be 46 2f 08 bf
       0.21512066 0.2265714 -0.36012894 -0.53197134
000010 27 47 1d bf fa 63 1b be 65 de ec 3e d5 6d 40 be
       -0.61436695 -0.15174857 0.46263424 -0.18791898
000020 bf f5 a9 3e 0e 24 44 bf ed de 2a 3f b2 44 1b bf
       0.33195302 -0.76617515 0.6674641 -0.60651696
000030 f1 20 fe be 37 52 14 bd 3e 1a b3 be 7b ad 19 bf
       -0.49634507 -0.03621122 -0.3498096 -0.60030335
000040 e7 67 94 be 1e bd f6 be d7 f9 41 bf 93 8e 71 bf
       -0.2898552 -0.4819116 -0.7577185 -0.94358176
000050 35 1c 02 3f 6a 37 22 3f f4 57 2d be f0 63 20 bf
       0.5082429 0.63365805 -0.16928083 -0.6265249
000060 c5 6e 38 3e fa 04 25 be 1a 1b 02 bf 02 f0 ca be
       0.18011005 -0.1611518 -0.50822604 -0.39636236
000070 84 57 10 bf eb 1e 3e bf 21 78 d3 be bd 0e aa bc
       -0.5638354 -0.7426593 -0.4130259 -0.02075898
000080 9f c3 5d be f2 c3 84 be 6e fb 02 3f 3f b5 d2 be
       -0.21656655 -0.25930744 0.511649 -0.41153905
000090 c6 4c 20 be ba cd c7 be b9 19 a9 be a2 2c 5b be
       -0.15654287 -0.39024144 -0.33027437 -0.21403745
0000a0 a4 eb 34 3c 67 c4 04 3f 59 52 d8 3d fd 2c 72 3e
       0.011042509 0.51862186 0.105625816 0.23649974
0000b0 7f 1e d4 3e da a1 ac 3e 74 69 cd 3e f6 bb 81 3e
       0.41429517 0.33717233 0.40119517 0.25338715
0000c0 dd 9c 0a 3f 01 fa ad be a6 94 cd 3e 22 59 b8 3e
       0.54145604 -0.339798 0.40152472 0.36005503
0000d0 22 76 53 be e6 6f 83 3e eb 41 6a 3e 2f 4d 6d bd
       -0.20650533 0.2567131 0.22876708 -0.057934936
0000e0 ac 9d 31 be 9e 66 ee be 19 49 c9 be 2b 79 37 3e
       -0.17345303 -0.46562666 -0.39313582 0.17917316
0000f0 d2 ff e4 3e 0e 87 a0 be 5e f4 d8 bd 1a 9d 8b bd
       0.44726425 -0.3135304 -0.10593484 -0.06817074
000100 d0 bb 6d 3e f3 e8 fd be 20 10 ee bd e0 92 d8 3e
       0.23216176 -0.4959179 -0.11624169 0.42299557
000110 3c 19 79 3e 74 56 b8 be 3b 95 a4 be 6a 75 71 bc
       0.24326032 -0.36003458 -0.32145104 -0.014737466
000120 72 98 87 bb 1e 89 82 3d 72 2d e7 be fd a5 42 be
       -0.004138046 0.06373809 -0.4515186 -0.19008632
000130 8b 69 02 3e 83 e7 fb 3e f7 ef 99 3e ee ef b7 3e
       0.12735574 0.49200067 0.3006589 0.3592524
000140 d3 3b 0f 3f 57 aa fb bd 39 41 a1 3e ae 64 2f 3e
       0.5595066 -0.12288349 0.31495073 0.1712825
000150 38 19 5e bf ba 16 43 bf 12 b6 61 bf 91 2c bc be
       -0.8675723 -0.76206553 -0.8816844 -0.3675275
000160 98 d6 84 bf a4 7b 26 bf ba d1 b3 3e 4a 37 ca 3d
       -1.0377989 -0.6503241 0.35120946 0.09873827
000170 f1 fc ee 3e a7 d6 26 3f 95 5a fc 3e 6e 81 25 3f
       0.46677354 0.65171283 0.4928786 0.6465062

arith.constant1 f4 [16, 32]
000000 a1 08 bc be fb 5d c1 3e d8 9a 0f be f3 b7 a4 be
       -0.36725333 0.37767014 -0.14023912 -0.32171592
000010 c9 86 ab bd 6d 62 d5 3b ef 94 ea bc 0b fd 26 3d
       -0.083753176 0.0065119774 -0.02863547 0.040768664
000020 e8 60 59 3e 84 65 8b 3e a4 4e 7b bd d3 0c bc bd
       0.21228373 0.27225888 -0.061354294 -0.091821335
000030 6f 7d 4a 3e 09 bb cc 3e 76 e6 53 be 3b b4 3b be
       0.19774412 0.39986446 -0.20693383 -0.18330471
000040 15 55 5f bd 43 3a 1d 3d f8 16 87 bd 59 c6 f3 3d
       -0.0545245 0.03838564 -0.06596178 0.11903066
000050 68 f3 df 3e f1 26 c4 3e 80 b5 e1 3d 42 9b fb 3b
       0.43740392 0.3831096 0.110209465 0.0076784203
000060 6d 98 87 3e 80 1c f6 bd 35 d9 8b 3e e8 a8 de bd
       0.2648348 -0.12017155 0.27314153 -0.1087206
000070 0d 68 e7 bd 4e b9 9a be a6 f5 ab bd e6 c4 9b 3e
       -0.11299143 -0.302195 -0.08396463 0.3042366
000080 9c be fc be 51 d4 2b bc 1a 2e 8c 3e 7e 23 07 be
       -0.49364173 -0.010487632 0.27378923 -0.13197133
000090 10 8b 25 be 32 4c b4 be f9 bc 21 bf cc ac e1 be
       -0.1616633 -0.35214382 -0.63178974 -0.44077146
0000a0 b7 4e 97 be 74 23 cd 3e 9e 9f 41 be 0c e0 06 3e
       -0.29552242 0.4006611 -0.18908545 0.13171405
0000b0 7d 66 be 3d a7 aa fc be af 71 05 bf d4 7a 64 bd
       0.09296892 -0.49348947 -0.5212659 -0.0557812
0000c0 f5 a9 87 3e ce 77 1f bf 45 c0 6b 3e 0a 63 40 3d
       0.26496854 -0.6229218 0.23022564 0.04696945
0000d0 04 73 b6 bd aa 94 c1 be 65 93 56 be f5 f4 8c bb
       -0.08908656 -0.37808734 -0.20954664 -0.004301662
0000e0 a7 44 d8 bd 50 8d bb be 54 57 f9 bc 03 f1 4c 3e
       -0.105599694 -0.3663125 -0.03043715 0.20013814
0000f0 f3 82 49 3d 1f 0a 80 3e bb f9 83 3e fa 58 24 3e
       0.04919715 0.25007722 0.25776467 0.16049567
000100 b1 3f a9 3e 07 d6 e5 3d b8 b1 88 3e 44 c2 c6 bd
       0.33056405 0.11222463 0.2669809 -0.09705022
000110 ce e0 69 3e 41 80 bd 3e 52 3a 08 3e 20 e8 03 3f
       0.22839662 0.37011912 0.13303497 0.5152607
000120 5b 4b b4 3e 04 25 12 3d b8 52 29 be 15 30 a6 be
       0.35213742 0.035679832 -0.16535461 -0.3245856
000130 86 df 53 bc b2 42 04 3f 9e 5a 6e 3e 97 65 19 bd
       -0.01293171 0.5166427 0.23276755 -0.0374504
000140 f5 4f 99 3e f5 74 85 3d bc b3 6f 3e b1 fc 0f 3f
       0.29943815 0.065164484 0.23408407 0.5624495
000150 7f e0 ca 3e 75 a3 83 3d d9 2e a0 bc 49 ec 53 be
       0.39624402 0.06427661 -0.019553589 -0.20695604
000160 e6 24 34 3e 70 f4 5c 3e 53 c0 c3 bd bc 43 1c bf
       0.175922 0.2157762 -0.09558167 -0.61040854
000170 fb a4 f7 3d 6e 0f 51 bd 4c 38 24 be 60 4f 3c 3e
       0.120920144 -0.051040106 -0.160371 0.18389654
000180 cb ae eb 3b 78 23 95 3e 8c 0e 19 3e a1 d3 c6 be
       0.007192468 0.29128623 0.14946955 -0.38833335
000190 ed 95 09 3e e7 f2 c9 3a d8 e1 a5 3e a7 55 31 3e
       0.13436098 0.0015407474 0.32398868 0.1731783
0001a0 68 58 a4 3e 98 21 f2 bd 0a f6 a5 3d 0b 3a ed be
       0.320987 -0.11822814 0.08103569 -0.46333346
0001b0 ae 6c 1b be 8a c5 c5 3e 28 8d c5 3b 07 7f a8 3d
       -0.15178177 0.38627273 0.00602879 0.082273535
0001c0 65 5d ac bc 13 18 5a bd f2 1e ce 3b ba 9f df 3e
       -0.021040628 -0.053245615 0.00629031 0.4367655
0001d0 1c 25 4c be b5 f2 15 3d 1c c5 5d 3d bf ea 8f 3d
       -0.19936031 0.036608417 0.054143056 0.07027196
0001e0 c6 b6 b3 3e 6b b6 c2 bd f4 dd 19 3d 2d 1b d1 be
       0.35100383 -0.0950745 0.037565187 -0.40841046
0001f0 8c ca 6a 3e bf 98 95 3d 1a f4 ff bd de e2 cc 3e
       0.22928828 0.07304525 -0.124977306 0.40016836
000200 cf 44 9d 3d 7c 29 33 3d 58 b7 c8 3e f5 c2 d9 3e
       0.0767914 0.043740734 0.3920238 0.42531553
000210 20 0d eb 3e eb 1b d0 be 62 dd 09 3e b7 95 18 bd
       0.4590845 -0.406463 0.13463357 -0.037252154
000220 b8 8e 9c be ac 3f e1 3e 20 7e a3 3e 69 54 ba 3e
       -0.30577636 0.4399389 0.31932163 0.36392525
000230 ef b0 01 be b8 c1 3c 3e 56 75 83 3e 5b 8a 9c 3e
       -0.12665151 0.18433273 0.25675458 0.30574307
000240 7f ca 8d be 2c a8 d8 3e 51 a5 7d bd 6d bc 8f 3e
       -0.27693555 0.42315805 -0.061925236 0.28073445
000250 bf bc 0c bf c4 36 fb 3d 89 7c d3 3e 37 49 66 3d
       -0.54975504 0.12266305 0.4130595 0.056222167
000260 89 c0 33 bd 5c 99 0a 3f 86 4c 08 be 81 f5 7d be
       -0.043884788 0.5414026 -0.13310441 -0.24800684
000270 32 42 03 3e 95 45 05 be 67 59 02 3e 54 31 a2 bd
       0.1281822 -0.13014825 0.12729417 -0.07919565
000280 b8 8b 6e 3e fc a6 91 3d 8c 81 a3 3d d3 6a 58 3e
       0.23295486 0.07111928 0.079836935 0.211345
000290 7a 83 40 3c 48 8f 30 be 03 6d 45 3e 41 dc 82 bd
       0.011750096 -0.17242157 0.19279866 -0.06389666
0002a0 29 3e c2 be 1c 37 09 3f ca 87 d9 3e 2b ca 49 3e
       -0.3793805 0.53599715 0.4248641 0.19706027
0002b0 97 d4 b5 bc 97 47 0e 3e f7 5e b9 3e 4b d1 a1 3e
       -0.022196097 0.13894497 0.36205265 0.3160499
0002c0 4c 5f 06 bf 36 b9 cf bd 84 ff d4 3e 0d f7 1d be
       -0.5248916 -0.10142748 0.41601193 -0.15426274
0002d0 9c 51 9a be 1c 7d fb 3e 2a d4 4c 3c 9f 99 af 3e
       -0.30140388 0.49118888 0.012501756 0.3429689
0002e0 71 cc 21 be ba 76 05 3e 5f a7 57 3e 33 30 09 3f
       -0.15800644 0.13033572 0.21059941 0.5358917
0002f0 96 75 a5 3e d1 9b 99 3e 65 d4 e2 3e a2 ae 9a bd
       0.32316273 0.3000169 0.4430267 -0.0755284
000300 f1 f2 33 3e 11 3b 86 be 0e 4b fe 3e 18 89 9e be
       0.17573144 -0.2621694 0.49666637 -0.3096397
000310 c3 51 fd bc 4e f6 89 bd 26 01 eb 3d de 28 6e bd
       -0.030922776 -0.06736432 0.114748284 -0.058144443
000320 ba 75 ba be 86 b4 de 3e 08 5d 9c 3c d7 d2 b3 3e
       -0.36417943 0.43497103 0.01908733 0.35121796
000330 90 9a ab 3e ec fe a8 3d e7 50 a5 be 7b c8 db 3e
       0.3351636 0.082517475 -0.32288286 0.42926392
000340 f7 4d c7 be a9 1c 36 3e 35 38 cc 3e b7 63 d7 3b
       -0.3892667 0.1778437 0.39886633 0.006573166
000350 ef 07 88 be 10 26 49 be 2a 4b 65 bc 65 86 f2 3e
       -0.26568553 -0.19643426 -0.013994971 0.4736816
000360 11 52 39 3e 3d 06 65 be e5 de 36 bd e2 77 4d be
       0.18097712 -0.22365661 -0.044646163 -0.20065263
000370 c8 37 07 3e 4b 25 85 be 19 36 95 3e cb 9e 59 3e
       0.13204873 -0.26005015 0.29142836 0.21251981
000380 7f 89 8d 3e c6 d5 a8 3e d6 c0 ba 3d c0 fd db bd
       0.27643964 0.32975596 0.09118812 -0.10741758
000390 f4 fe 12 be 71 71 4b 3c 63 cd a9 3d e7 01 7d be
       -0.1435507 0.012417183 0.082911275 -0.24707757
0003a0 2f 34 9a be a2 dc 95 bc c1 fe 93 be 3c 1b 6a be
       -0.30117938 -0.018293682 -0.289053 -0.22861952
0003b0 8d 62 34 be 2d 24 8f be 6f 2a 1b 3e 56 91 8f 3e
       -0.17615719 -0.27957287 0.15152906 0.2804057
0003c0 67 6f 9d 3e 3f 08 9b be fe 33 9f 3e 8d 27 54 3c
       0.30749056 -0.3027973 0.31094354 0.012948883
0003d0 e1 08 cb be 72 e9 5e be 1c fe 96 3c 0f 56 74 3e
       -0.39655212 -0.2176874 0.018431716 0.23860954
0003e0 6f 7c b6 3e a6 c4 aa be 67 0e 5e be 0d f0 aa 3c
       0.3564181 -0.33353156 -0.21685182 0.020866418
0003f0 81 75 b8 3e ed bd e0 3d 4f c5 6e be 17 cc 81 3e
       0.36027148 0.109737255 -0.23317455 0.2535102

arith.constant2 f4 [32, 64]
000000 ea c3 bb bd 1c bd 4c bd ae 25 06 3e 70 2f 84 bd
       -0.09168227 -0.049985036 0.13100311 -0.064543605
000010 9d a4 d8 bd df 48 c1 be 0b 33 3f bc cb 23 3e 3e
       -0.105782725 -0.3775091 -0.011669884 0.18568341
000020 bc fb 6e 3e 0b b1 83 3e 62 83 18 be 8b 8f 92 be
       0.23338217 0.2572101 -0.14893869 -0.2862514
000030 06 28 85 be 80 02 26 3d fa 14 06 3d 28 d2 96 be
       -0.26007098 0.040529728 0.03273485 -0.29457211
000040 ab 41 cc bb 19 0b 4f bd 89 37 94 ba ba 59 ed 3d
       -0.006233414 -0.050547693 -0.0011308055 0.115893796
000050 bf 3e c8 bd b6 85 51 3d be 60 97 be 18 97 c9 3c
       -0.09777593 0.051152907 -0.29565996 0.02460818
000060 9e 67 8e 3b bf 82 85 be 42 fb c1 3d 5f 0b 75 be
       0.004345848 -0.26076314 0.09471752 -0.23930119
000070 c8 5c 2c 3e 6e 72 35 3e b4 ef 27 bd 1d 95 8b be
       0.16832268 0.17719433 -0.041000083 -0.27262202
000080 73 e9 24 3e 49 d0 a6 39 ec 8b 4a be 7a 82 b9 3c
       0.16104679 0.00031817172 -0.19779938 0.022645224
000090 5b 46 73 be 70 88 b4 bd 3b ca e1 bd dd 28 25 be
       -0.23757307 -0.08815086 -0.110249005 -0.1612887
0000a0 bf f3 bc bd 36 ce 31 3e 63 eb 58 be 3b e8 33 3e
       -0.092261784 0.1736382 -0.21183543 0.17569058
0000b0 93 d1 ed 3d fc 4f 03 3e 96 df ae 3c e2 7c 35 3e
       0.11612239 0.1282348 0.021346848 0.1772342
0000c0 4c 17 0e 3e 64 3a 16 be f3 cb 73 bc b1 3e 92 be
       0.13876075 -0.14670712 -0.014880168 -0.28563455
0000d0 ac 9d 6a be 99 b0 d5 bd 20 64 10 be 23 bf 80 be
       -0.2291171 -0.10434074 -0.14100695 -0.25145826
0000e0 0f 4c 90 bc 81 9b 69 be 7f 33 8c bd ef 6d 70 be
       -0.017614393 -0.22813226 -0.068457596 -0.23479436
0000f0 1c 7f ca bd a2 f6 fd 3c ef d3 bd 3d af 7a a1 bd
       -0.098875254 0.031001393 0.09268939 -0.07884728
000100 bb ac 15 be 9f 10 93 3d 0a df e1 3d c2 b7 32 be
       -0.14616673 0.071809046 0.110288695 -0.1745291
000110 2b 97 29 3e b7 70 9b 3d 44 09 18 bd 81 58 ac 3d
       0.16561572 0.07589858 -0.03711821 0.08415318
000120 0e 0d e3 3c 6c 13 22 3e 47 5b f2 bd c5 b5 88 bd
       0.027716186 0.15827721 -0.11833816 -0.06675295
000130 a3 5e b8 bd b2 cb fb 3d a2 73 9f be 88 22 85 be
       -0.090024255 0.12294711 -0.31142908 -0.26002908
000140 ed 77 82 bd 57 0d be 3d 17 fd 7b 3d 06 9e 28 be
       -0.0637053 0.09279888 0.061520662 -0.16466531
000150 69 29 ab 3e e4 7f 73 3e 85 3d a8 3e 64 1a 5c 3e
       0.3343003 0.23779255 0.32859436 0.21494442
000160 63 8e 88 be dd 1b 96 3e 42 31 ec 3d 0b 77 45 bd
       -0.26671132 0.29318133 0.11532833 -0.04820923
000170 61 20 1d be b9 ea b0 be c5 66 cb bd 81 47 75 b8
       -0.15344383 -0.3455408 -0.09931711 -5.8479145e-05
000180 bf 2f b8 3d 15 d5 23 be b1 3a 10 3e d1 96 04 be
       0.08993482 -0.15999253 0.14084889 -0.12948157
000190 b1 8f 30 3e b0 66 56 3e 66 df 35 3e c2 5e 84 3e
       0.17242314 0.2093761 0.17761001 0.25853544
0001a0 09 cd 13 3c b9 94 bf bd fa e2 b2 3e 67 7f ae 3d
       0.009021052 -0.093545385 0.34938794 0.08520394
0001b0 00 62 83 3e 06 7b b1 bd 6c d0 a8 3c 97 59 4b be
       0.25660706 -0.08666043 0.020607196 -0.19858395
0001c0 96 8a 46 be 5b e3 0c be 99 7d 51 bc 4a 11 8a 3d
       -0.19388804 -0.13758604 -0.0127862925 0.06741579
0001d0 6c 39 6f bd af df 4b bc 4f 15 f2 3d 45 87 95 bd
       -0.05840437 -0.012443467 0.118204705 -0.07301191
0001e0 60 99 ca 3d 43 ff 03 bd 5d e0 c4 bd f5 da 80 3e
       0.09892535 -0.03222586 -0.096131064 0.2516705
0001f0 2b 7d 1b 3e be 23 9a be b3 11 29 be bf 82 20 3d
       0.15184467 -0.30105394 -0.16510658 0.03918719
000200 e8 5a 74 3e 2e 4b 31 3c 1f 3d 26 be c5 80 98 3d
       0.23862803 0.010821147 -0.16234253 0.07446436
000210 3b 67 7c bd 18 84 34 3f 68 04 ff bd 21 19 9e bd
       -0.061621886 0.7051406 -0.12452012 -0.07719637
000220 95 64 52 bd f8 5f 1f be aa 8e 09 be 79 8a 10 3e
       -0.051365454 -0.15563953 -0.13433328 0.14115323
000230 39 39 bc bd a1 2e 65 bc d0 bf db 3d 8f d3 0e 3f
       -0.09190602 -0.013988168 0.10729945 0.5579156
000240 f5 17 c3 3e 3b a7 cd bd c8 9b 9b 3e 0f 80 de 3e
       0.38104215 -0.10041662 0.3039229 0.43457076
000250 83 e2 8d be 93 d7 01 3d b8 df b5 3d 2e e3 7e 3e
       -0.27711877 0.03169973 0.088805616 0.2489135
000260 f1 27 a9 bd 90 53 25 be bf 75 d5 bd 80 88 fe 3e
       -0.08259571 -0.16145158 -0.10422849 0.49713516
000270 2d ed 46 3e 9d 36 4a be 8d 1c 06 3e e5 3f 2e 3e
       0.19426413 -0.19747396 0.13096829 0.17016561
000280 e2 18 41 be 39 09 f2 3e d5 23 23 3d e4 21 03 be
       -0.18857148 0.4727266 0.039829094 -0.12805897
000290 47 04 3f be f4 ee 14 3e a1 eb b3 3d 8e 47 29 bd
       -0.18653975 0.14544278 0.08785177 -0.041328005
0002a0 85 4c 61 3e 47 14 47 3e 49 31 46 be bb 3b c8 3b
       0.22001846 0.19441329 -0.19354738 0.006110636
0002b0 5d c3 24 be 11 82 9f bd 55 62 08 3e c9 e4 5f 3e
       -0.1609015 -0.0778848 0.1331876 0.21864618
0002c0 1d cc ac 3d 0f 31 21 3e 68 ac e2 3d 4a 1f 29 3e
       0.08437369 0.1574137 0.1106804 0.16515842
0002d0 8f 24 9c 3e e3 31 bc 3e 58 13 e8 bc 55 4e d7 bc
       0.30496642 0.3675681 -0.028329536 -0.026282469
0002e0 d7 a8 88 bc 71 b8 14 3e b7 5d 26 3e 96 38 46 3d
       -0.016682072 0.14523484 0.16246687 0.04839381
0002f0 d1 0a b9 3d cd 92 63 3e eb da 03 3e ed 33 17 be
       0.09035266 0.22223969 0.1287648 -0.14765902
000300 aa 3e b4 bc 30 3b 98 bd a1 b9 86 be d1 dd 6f 3e
       -0.022002537 -0.07433164 -0.263135 0.2342446
000310 02 4c e2 bd 8e 67 50 3d 9a 6f 7a bd c8 1b 7a 3e
       -0.110496536 0.050880007 -0.061141588 0.2442466
000320 1b 17 89 3e 55 94 2e 3e c3 c0 ac bd 04 bd 03 be
       0.2677544 0.17048772 -0.08435204 -0.12865072
000330 07 bc 8c bd 2e aa 9c bd df f8 55 3c 7b a6 72 3d
       -0.06871801 -0.07649647 0.013059824 0.0592408
000340 48 54 10 be 76 3e bb bd a9 62 79 3e 3b 31 3d be
       -0.14094651 -0.09142773 0.24354042 -0.18475811
000350 8a 31 6b be 5c 97 45 3d 25 65 c9 be 87 c0 18 be
       -0.22968116 0.04824005 -0.3933498 -0.14917193
000360 03 4d 58 3d f0 ec d4 bd 5e bf 00 bc 5c ee 55 3e
       0.05280782 -0.10396755 -0.0078581255 0.20891708
000370 14 b4 49 bc bb e5 6b 3e 9a 20 d7 3d 5e f9 fd 3d
       -0.012311 0.23036854 0.10504265 0.12401079
000380 05 ef 07 3e be 24 0f be 3d d4 e2 be 4b 29 9b 3e
       0.13274772 -0.1397886 -0.4430255 0.30304942
000390 e6 fc f3 3d aa a5 44 bd 13 9f 06 be 01 97 22 be
       0.11913471 -0.048009552 -0.1314662 -0.15877916
0003a0 ed 9c 8a be 77 24 eb bd da 68 42 be 4a 5b 0b bd
       -0.2707285 -0.114815645 -0.1898531 -0.034022607
0003b0 b9 ae b6 be 96 67 b8 bd 03 89 b7 be be b3 c2 bd
       -0.35680178 -0.090041324 -0.3584672 -0.09506939
0003c0 d7 b9 fe 3d 53 0f a7 3d c5 af 92 3d a0 d2 1c be
       0.1243779 0.0815722 0.07162432 -0.15314722
0003d0 b4 dd 2b 3e a5 49 80 be 81 99 03 be 38 d3 89 be
       0.16783792 -0.25056186 -0.12851526 -0.2691896
0003e0 ca 68 b9 be 13 05 d2 3d 25 3f b6 3c c8 f3 da be
       -0.3621276 0.10254874 0.022246907 -0.42764115
0003f0 7c 49 3e be d8 3c 88 3c 01 3f c6 3d 43 bf 60 be
       -0.1858272 0.016630575 0.09679986 -0.2194796

arith.constant3 f4 [6]
000000 1b 1f 86 bd ad 83 13 3e d1 bd 50 bc 54 f3 57 3d
       -0.06548902 0.14405699 -0.012740568 0.05272229
000010 e0 0f f4 3d af f4 b8 be
       0.119170904 -0.3612418

arith.constant4 f4 [16]
000000 1a b7 eb 3d 03 d1 4e be 8d b6 f0 bb 51 2f 94 3e
       0.11509533 -0.20196919 -0.0073459805 0.2894235
000010 64 3f d5 3e 2a 6a 69 3e ea c9 52 3e 99 f7 ec 3d
       0.41649926 0.22794405 0.20584837 0.11570663
000020 41 18 eb 3e 6b 4a 30 3e 37 82 84 be ca 07 ab bc
       0.45916942 0.17215888 -0.25880596 -0.020877738
000030 91 50 9a 3d 11 7c b9 ba 7b 39 65 bd 6c e1 cd bd
       0.07534898 -0.0014151355 -0.05596302 -0.100527614

sequential_1/dense_1_2/BiasAdd/ReadVariableOp f4 [32]
000000 a5 20 00 be b4 91 21 be 44 d5 a7 3e 85 3f 64 3d
       -0.12512453 -0.15778238 0.32779896 0.05572464
000010 f9 2c 4b 3e 28 20 21 be 30 de 40 3e 6c 18 38 be
       0.19841374 -0.15734923 0.18834758 -0.17978066
000020 4c f9 39 be 44 88 53 3d a9 45 14 3e b4 8c 3f ba
       -0.18161505 0.051643625 0.14479698 -0.0007307038
000030 16 59 f7 3d b5 63 4d 3e f7 4a 02 3e c4 dc 47 3e
       0.12077539 0.20057566 0.1272391 0.19517809
000040 3b 10 12 be d3 68 2d 3e 08 2d 2b 3d 24 d6 f9 3d
       -0.14264004 0.16934519 0.041790992 0.12199047
000050 b6 a1 7e be 12 ae 89 3e 02 1e a1 3e 0a f1 17 bd
       -0.24866375 0.26890618 0.31468207 -0.037095107
000060 2a 39 96 bd e2 20 5c 3c 20 00 22 bd d8 01 35 bd
       -0.07335122 0.013435574 -0.0395509 -0.04419121
000070 b9 ee c1 3e 5a 71 54 bd cc b9 3f 3d e4 54 2a 3d
       0.37877443 -0.051865913 0.04680805 0.041584864

sequential_1/dense_1/BiasAdd/ReadVariableOp f4 [64]
000000 ad e2 29 3e ed e9 56 3d a6 24 26 be 36 0c 5b 3d
       0.16590376 0.052469183 -0.16224918 0.053478442
000010 1a d4 2e be a5 65 cf 3e cf 02 5c 3a 73 5c 07 bc
       -0.17073098 0.40507236 0.00083927525 -0.008261788
000020 a1 8f 10 be db 41 f9 bd a9 5d 63 bd 90 1f 2e 3e
       -0.1411729 -0.12170764 -0.055509243 0.17004228
000030 a4 6a 91 bd a8 53 74 bd af 8b 25 3e a0 d6 90 3e
       -0.07100418 -0.059650093 0.16166566 0.28288746
000040 96 97 39 3e a5 21 9f bc c1 fc f2 3d 5d 8d 90 3e
       0.18124232 -0.019425223 0.11864615 0.28232852
000050 ca 31 68 bd dc 5e 18 be 02 39 af 3d f6 83 2c 3d
       -0.056688108 -0.14879936 0.08555795 0.042118035
000060 ef 6e 9c 3d db 55 21 be 2e dc 02 be 4a 93 0a 3e
       0.076383464 -0.15755408 -0.12779304 0.13532749
000070 40 4d b0 bb de 24 d8 3d fd 1b 4e bc c9 3f 8a 3e
       -0.0053803027 0.10553907 -0.012579915 0.2700179
000080 e7 99 09 3d 4d 8b 3e 3e 1c 6b c9 3d c9 ea 65 3c
       0.03359404 0.18607827 0.098348826 0.014033028
000090 b7 9f ae be 42 0e 1c 3d e2 25 2f 3d ee 1c 52 3d
       -0.34106228 0.038099535 0.042760737 0.05129712
0000a0 fa 5b 04 3e 48 da d0 bd 0b 24 90 3c 5c ee bf bd
       0.12925711 -0.10197884 0.017595312 -0.09371635
0000b0 75 f2 e1 bd ae a5 f7 3d 9f 60 fd b9 a2 d2 bf 3d
       -0.11032573 0.12092148 -0.0004832791 0.09366347
0000c0 ca ef ff bb 82 a4 61 3e 00 c5 b7 bd fd 7c 8b 3e
       -0.0078105675 0.22035411 -0.08973122 0.27243796
0000d0 2d 3e 55 3d 77 a5 92 3d 5d a2 2b 3d 7e 27 d4 3d
       0.05206125 0.07160466 0.04190289 0.10359095
0000e0 d5 d2 c5 3d 43 14 0f 3e a7 cb 4d 3d fd 1a 48 3e
       0.09659354 0.13972573 0.050243046 0.19541545
0000f0 4b 1e 9a 3d 05 11 02 3e fc 0a 82 bd 3b d9 89 3d
       0.07525309 0.12701805 -0.06349751 0.067308865

sequential_1/dense_1/MatMul f4 [64, 8]
000000 21 fa 6c 3e f0 76 d3 bc 05 19 47 be 35 fd 40 3d
       0.23142292 -0.02581355 -0.19443138 0.047116477
000010 02 85 75 3b 35 f3 26 be 3d 6b df be 7b 99 a2 3d
       0.0037463312 -0.16303714 -0.43636504 0.0793943
000020 25 2b 68 be 6c 09 90 3d 3a 8e 17 3e b9 97 1c bc
       -0.22672708 0.07033047 0.14800349 -0.009557658
000030 b1 8b 25 3d 4b 6f 16 3e 9d 0d 98 3e 2a a0 d4 bd
       0.040416423 0.14690892 0.29697886 -0.10382111
000040 6a fe af 3e df f5 b8 bd d1 24 1a be 86 1c f8 ba
       0.3437379 -0.09031271 -0.15053107 -0.0018929399
000050 e2 6c eb ba 76 df c8 bd 3a 54 12 3f db d8 88 3d
       -0.0017961527 -0.09808247 0.5715977 0.06681987
000060 e7 ab 4a be bf 17 cb bd 50 af f5 bd 4d 9b 13 bd
       -0.19792138 -0.099166386 -0.11996329 -0.03603678
000070 8a 2e f5 bc e9 00 76 3e e7 cb 82 be b9 37 14 be
       -0.029929418 0.24023785 -0.2554619 -0.14474382
000080 57 d0 31 3e f9 11 00 bd 82 0b 2b bd 1c 62 d4 bc
       0.17364632 -0.03126714 -0.04175902 -0.025925688
000090 33 69 12 bc 6e c1 b1 3d 94 65 21 3f f9 8a 0a be
       -0.008936214 0.08679472 0.6304562 -0.13529576
0000a0 9d f0 2b 3e 76 4b dd bb 5c c2 e6 3c 1e 62 ea bc
       0.16791005 -0.0067533804 0.02816885 -0.028611239
0000b0 0f f3 07 bd 53 86 33 bc 0e 95 1f bf 50 55 af bb
       -0.033190783 -0.010957318 -0.62336814 -0.005350746
0000c0 b5 40 71 be 24 04 03 bc 7a 4f ab bc fb bc 2f 3d
       -0.2355984 -0.007996593 -0.02091192 0.042904835
0000d0 1b 13 5d 3d 5c 31 77 3d 28 c9 12 3f 4e af 23 bd
       0.0539733 0.060349807 0.5733819 -0.039962105
0000e0 d0 cb 11 bf 75 8f 1b 3d 74 98 cb bc 6f c4 93 bd
       -0.5695162 0.03797861 -0.024852969 -0.07215201
0000f0 6f c5 97 bc f5 bb 9c bd eb 33 b3 3d b2 14 95 3c
       -0.01852676 -0.076530375 0.08750137 0.018198345
000100 5f 1f 28 bf 23 05 22 3e 38 9b 1e be 10 53 e8 3d
       -0.6567287 0.15822272 -0.15488899 0.11343968
000110 1e d3 00 3d 19 3c 20 bd 26 20 da 3c 5e 72 7e 3d
       0.031451337 -0.039119814 0.026626658 0.062120788
000120 a2 b5 a0 be 51 14 28 be 5a c1 e7 3d f5 43 bc bd
       -0.31388575 -0.16414 0.11316176 -0.09192649
000130 e6 00 8d bd c8 92 e6 bd 0b c6 94 3d 38 8b 45 3d
       -0.06884937 -0.11258465 0.07264336 0.048228472
000140 b4 99 0d be dd 6d d8 3d 85 34 da bd 55 c3 83 3c
       -0.13828164 0.1056783 -0.106545486 0.016084353
000150 f3 fe 96 3c c4 6c 0e ba 73 81 3f 3f 25 21 26 bd
       0.018432116 -0.00054330775 0.748069 -0.040558953
000160 46 f9 50 3e 34 82 b9 bc 16 60 5f bd f3 86 81 3d
       0.2040759 -0.022645094 -0.054534994 0.06324568
000170 a3 21 2d be 00 42 20 3e 83 46 7b 3e 1f aa 17 3e
       -0.16907363 0.15650177 0.24538617 0.1481099
000180 29 a2 e2 3d 7b 2b 07 3d 0f 77 6d be 63 bb 90 3c
       0.11066086 0.03300045 -0.23189948 0.017667478
000190 52 19 d5 3d 7e 74 42 be f7 ff 37 3c f0 f3 44 be
       0.1040522 -0.1898975 0.01123046 -0.1923368
0001a0 27 7b 83 be c0 1e 23 3e 37 c3 99 be f7 ed 1e be
       -0.25679895 0.15929699 -0.3003175 -0.15520464
0001b0 a6 3a 1a 3c 79 2b 84 3d 8e 31 dd 3d 9d 76 3e be
       0.009413397 0.06453604 0.108004674 -0.18599935
0001c0 fd 71 e1 be b2 1c ad 3d 02 36 d9 3d 97 4d b2 3d
       -0.4403228 0.08452739 0.10606004 0.08706205
0001d0 1f bf 66 3c b6 d5 96 bd 3a 05 14 be 59 ac 04 be
       0.014083653 -0.07364981 -0.14455119 -0.1295637
0001e0 4b e6 28 3e a1 9d d1 3c 31 d3 0e 3d 37 df 66 3d
       0.164941 0.025587859 0.034869377 0.056365218
0001f0 27 b6 83 bd 3d 3d cb bc cf e4 04 bf 08 b4 3c bd
       -0.06431227 -0.024809474 -0.51911634 -0.04607013
000200 e1 b0 41 3e 05 b6 5a 3c f6 d1 42 be 79 72 51 bd
       0.1891513 0.013349061 -0.19025406 -0.05113456
000210 b1 69 1c 3e d9 a7 6d bd 0f b7 b2 be 71 a5 5d 3d
       0.15274693 -0.0580214 -0.34905288 0.054112855
000220 03 8e d4 3e 85 05 47 3e ca a9 ef bc e0 1a 05 3e
       0.41514596 0.194357 -0.029255766 0.12998533
000230 d3 40 74 bd 72 a9 66 bd 7e 6e f6 3e a9 2a 42 be
       -0.059632134 -0.05631394 0.48131174 -0.18961586
000240 ec 61 9f bd 30 51 96 bb fe 30 a3 bd b4 f8 07 be
       -0.07782349 -0.004587315 -0.07968329 -0.13278466
000250 d6 f0 a2 3d d5 78 3f bd 25 e5 2c bf a5 48 ed bd
       0.07956092 -0.046746094 -0.67537147 -0.115861215
000260 9d af f9 3d 8e 80 cb bd f7 a4 d3 bd 3d e2 ad 3d
       0.12191699 -0.09936629 -0.10334199 0.08490417
000270 13 35 09 bd 5e 33 c0 3d 41 38 09 bf c2 70 06 bd
       -0.03349788 0.093847975 -0.5360146 -0.032822378
000280 a5 d3 ab bd f6 66 6f 3c 28 63 9a 3d 95 b5 14 3d
       -0.08389977 0.01461195 0.07538444 0.036305983
000290 d1 a6 6b bc 18 18 76 3d 78 09 0b 3f 8a 89 6b bb
       -0.014383034 0.06008157 0.54311323 -0.0035940134
0002a0 78 f0 b7 3e 92 08 9a bd b9 e7 99 bd a5 29 58 bd
       0.3592565 -0.07521166 -0.07514901 -0.05277409
0002b0 69 85 ed bc 46 a2 8b 3d 94 8f 29 3f f0 47 49 3d
       -0.028994279 0.068180606 0.6623471 0.04914087
0002c0 ca 95 ff 3e c0 25 bd 3c f3 27 8d 3d 23 5a bf 3c
       0.49918967 0.02308929 0.06892385 0.02335841
0002d0 76 c8 cd bd 05 9b b4 bd 39 48 b0 3e 3d f8 5d bc
       -0.100480005 -0.0881863 0.34430102 -0.013547954
0002e0 8e 08 dd 3e 9f 1b ee bd 09 46 cd 3d 34 81 19 3c
       0.4317059 -0.11626362 0.10023124 0.009369183
0002f0 a6 44 8c 3c 03 2d 5a be 31 cb 3b bd 9e 67 0b 3e
       0.017122578 -0.21306233 -0.045848075 0.13613746
000300 08 d0 37 bf 76 06 e1 bc d5 08 af 3d 7a a8 ac 3d
       -0.71801805 -0.027468901 0.085466065 0.08430572
000310 99 96 85 3d 42 9e c5 3c 21 b7 07 3e 9a 38 b1 bd
       0.06522865 0.024123315 0.13253452 -0.08653374
000320 e8 b4 af 3e b2 97 33 3c 23 90 10 be fd 3d 8f ba
       0.34317708 0.01096146 -0.14117484 -0.0010928508
000330 e0 c8 48 3c 70 54 0a 3e 46 8c 7e 3e a8 43 17 be
       0.012254924 0.13508773 0.24858198 -0.14771903
000340 7a bb ab 3e bd bf 26 bc 99 5d b9 bd 64 55 24 be
       0.3354147 -0.01017755 -0.090510555 -0.16048199
000350 c9 6b ae 3d fd 63 e3 bd 10 a1 f2 3e 51 41 2b bd
       0.08516652 -0.111030556 0.47388506 -0.041810337
000360 22 0b f7 3d 9a d8 b0 3d ee 23 40 3d 6b 0a 0b be
       0.1206267 0.086350635 0.046909265 -0.13578193
000370 b8 35 da bd 84 e3 4b bd 11 40 01 bf 00 5d 0d 3e
       -0.10654777 -0.049777523 -0.5048838 0.13805008
000380 ae 8d 8b 3e 63 c4 20 bd ad 68 58 be f4 d8 9f bd
       0.2725653 -0.03924979 -0.2113368 -0.078050524
000390 fc 3c bb 3d 53 25 03 3e 0d 79 ea be 5e 1e 23 be
       0.09142491 0.12807207 -0.4579548 -0.15929553
0003a0 82 9b f2 be fd c7 fd bb 05 ad 52 3d 0f 4e 67 3c
       -0.47384268 -0.0077447877 0.051434536 0.014117732
0003b0 ea c0 fb ba 34 1c ba 3c 8c 5d 15 3e d1 ef b7 bc
       -0.0019207273 0.022718526 0.14586467 -0.02245322
0003c0 80 4d aa be 71 77 d3 bd 24 8d 3a 3e 31 bc a5 bd
       -0.33262253 -0.10325516 0.18217903 -0.08092535
0003d0 4e 0a 26 3e 2b a8 90 3e 4c 04 1e bd ba 07 f5 3c
       0.16214868 0.28253302 -0.038578317 0.02991091
0003e0 41 cd 1f 3e 84 ef 90 3b 29 60 ae bd 33 12 9a 3c
       0.15605642 0.0044230837 -0.08514435 0.018807506
0003f0 b0 87 bf 3d ad 59 c4 bd 86 c2 3e bf 11 6d 3b bc
       0.09352052 -0.09587417 -0.7451557 -0.011439578
